…
[2024-08-07 23:47:02] Test data: [Demo] ['SEX', 'NACCAGE', 'NACCAPOE', 'NACCNE4S'], [Info] ['NACCADC', 'MRIFIELDj', 'MRIMANUj', 'MRIMODLj', 'MRITHICKj', 'Label', 'NACCID']
[2024-08-07 23:47:02] [MRIFIELDj] 3, [MRIMANUj] 4, [MRIMODLj] 23, [MRITHICKj] 14, [NACCADC] 25
[2024-08-07 23:47:28] Sample number:	[train] 3925, [val] 1289, [test] 1306, [indi] 1220
[2024-08-07 23:47:28] Initialize algorithm.
[2024-08-07 23:47:28] n_inputs: [Demo] 4, [Info] 7, [Env] 52, [MRI] [60, 72, 60]
[2024-08-07 23:47:31] Algorithm1(
  (all_networks): ModuleDict(
    (MRI): OneModalityCausal(
      (CE): CrossEntropyLoss()
      (encoder): CNNTriangle(
        (networks): ModuleDict(
          (layer0): ConvLayerCBRD(
            (conv): Conv3d(1, 64, kernel_size=(7, 7, 7), stride=(3, 3, 3), bias=False)
            (BN): BatchNorm3d(64, eps=1e-05, momentum=0.1, affine=True, track_running_stats=True)
            (dropout): Dropout(p=0, inplace=False)
            (relu): LeakyReLU(negative_slope=0.01)
          )
          (layer1): ConvLayerCBRD(
            (conv): Conv3d(64, 128, kernel_size=(4, 4, 4), stride=(2, 2, 2), bias=False)
            (BN): BatchNorm3d(128, eps=1e-05, momentum=0.1, affine=True, track_running_stats=True)
            (dropout): Dropout(p=0, inplace=False)
            (relu): LeakyReLU(negative_slope=0.01)
          )
        )
      )
      (encoder_bias): FullyConnectRBD(
        (networks): LayerRBD(
          (layer): Linear(in_features=128, out_features=128, bias=True)
          (dropout): Dropout(p=0, inplace=False)
          (relu): LeakyReLU(negative_slope=0.01)
        )
      )
      (fc_causal): Linear(in_features=128, out_features=3, bias=True)
      (fc_bias): Linear(in_features=128, out_features=3, bias=True)
      (GCE): GeneralizedCELoss()
      (lambda_ampl): Amplification()
      (coding_rate): CodingRateDynamic()
    )
    (NonMRI): OneModalityCausal(
      (CE): CrossEntropyLoss()
      (encoder): MLPsRBD(
        (networks): ModuleDict(
          (layer0): LayerRBD(
            (layer): Linear(in_features=4, out_features=128, bias=True)
            (dropout): Dropout(p=0, inplace=False)
            (relu): LeakyReLU(negative_slope=0.01)
          )
        )
        (output): Linear(in_features=128, out_features=128, bias=True)
      )
      (encoder_bias): FullyConnectRBD(
        (networks): LayerRBD(
          (layer): Linear(in_features=128, out_features=128, bias=True)
          (dropout): Dropout(p=0, inplace=False)
          (relu): LeakyReLU(negative_slope=0.01)
        )
      )
      (fc_causal): Linear(in_features=128, out_features=3, bias=True)
      (fc_bias): Linear(in_features=128, out_features=3, bias=True)
      (GCE): GeneralizedCELoss()
      (lambda_ampl): Amplification()
      (coding_rate): CodingRateDynamic()
    )
    (Fuse): FuseCausal(
      (CE): CrossEntropyLoss()
      (encoder): FullyConnectRBD(
        (networks): LayerRBD(
          (layer): Linear(in_features=256, out_features=128, bias=True)
          (dropout): Dropout(p=0, inplace=False)
          (relu): LeakyReLU(negative_slope=0.01)
        )
      )
      (encoder_bias): FullyConnectRBD(
        (networks): LayerRBD(
          (layer): Linear(in_features=128, out_features=128, bias=True)
          (dropout): Dropout(p=0, inplace=False)
          (relu): LeakyReLU(negative_slope=0.01)
        )
      )
      (fc_causal): Linear(in_features=128, out_features=3, bias=True)
      (fc_bias): Linear(in_features=128, out_features=3, bias=True)
      (fc_final): Linear(in_features=128, out_features=3, bias=True)
      (GCE): GeneralizedCELoss()
      (dist): MiniDistance()
      (encoder_env): MLPsRBD(
        (networks): ModuleDict(
          (layer0): LayerRBD(
            (layer): Linear(in_features=52, out_features=128, bias=True)
            (dropout): Dropout(p=0, inplace=False)
            (relu): LeakyReLU(negative_slope=0.01)
          )
        )
        (output): Linear(in_features=128, out_features=128, bias=True)
      )
      (fc_counterfactual): Linear(in_features=128, out_features=3, bias=True)
      (lambda_ampl): Amplification()
      (coding_rate): CodingRateDynamic()
    )
  )
  (base_loss): CrossEntropyLoss()
)
[2024-08-07 23:47:31] groups_nonMRI: [Demo] 4
[2024-08-07 23:47:31] Save epoch0_start_model.pth
[2024-08-07 23:47:31] Train, epoch=0 ----------
[2024-08-07 23:47:53] [data] 0.668ms, [model] 18158.842ms, [evaluate] 1.438ms, [calculate_loss] 59.271ms, [update] 92.116ms
…
